experiments/results/mnist/model.pt (torch, 89935 bytes, 8 tensors)

conv1.weight f4 [10, 1, 5, 5]
00000000: 834d d7bd 133e 35be c39e 4cbe 5de0 12be
00000010: 7eca e7bc 3e21 ad3c c54c cd3d 75fc 673e
00000020: 6c44 413e 729e ccbe bbde 373e 2d15 043e
00000030: 8767 b9bd 5062 d23c 4e65 b1be 8d02 3ebe
00000040: 407b 633c 4b9b a7be d3e4 70be fc3e 513d
00000050: 30d6 26be 2f23 cd3d 906e 553e 77f5 243e
00000060: 5043 fc3d 6afa ea3d a8e9 443c 5243 463d
00000070: 9fac db3c 0423 033e cd10 15be 2cd9 f63d
00000080: 4798 183d 431e 2a3e 3105 38bc 9a68 7dbe
00000090: 5deb 513c 9925 fe3d 53b9 2d3d 60ee 413e
000000a0: 12f8 03bf a39f 37bd 3602 123e 9511 823d
000000b0: 295a 3c3e e88f a0be 27b8 16bf 9251 0ebf
000000c0: 50a2 98be 1777 29be 0db6 3a3e e6a4 123d
000000d0: c944 063e cf2a 10be 9730 053e 193d 923e
000000e0: f16a b9bd 4283 c5be c5f9 773b 58b9 4a3e
000000f0: ca4c 573e bc7c 8ebd 7ffb bdbe dc3a 1fbe
00000100: f2d5 843e 2ed6 4cbc 98ff e73d f8bb 76bc
00000110: 9198 0abe 9208 433e d7ca a5bd 2dd1 153d
00000120: f887 bf3d 527e c43d 39f3 d73d e484 f1bd
00000130: b253 81be c3c6 99be c09d 923d 761a 89bd
00000140: b01b 81b9 3142 dabd f344 0dbf 5052 a8bb
00000150: 133c 4abd c556 173e 9a17 2c3d 6c80 8bbe
00000160: 6ed1 08be 87d4 d43d e49a 843e 48a0 67bd
00000170: 7fa3 acbe 55a8 8bbe 24c3 703e 6716 8d3e
00000180: 7eb9 d53d e376 86be 5cd3 26be a0db f73c
00000190: 57b5 f93d 00aa 7fbd 61fa c8be 74f5 b0be
000001a0: b6af 49be 974b 92be 5091 3ebf ddbf c33c
000001b0: a542 d43c f28e 973d 0753 11bf 73bb 0b3e
000001c0: b79d 093e 10e3 303e 8744 143e 2c06 82be
000001d0: 78c1 2d3e c8ab a93d ab05 5d3d 4bd8 f33c
000001e0: bf5c aebd ffa2 c2bd 4878 ae3d 2abc f0bb
000001f0: 7083 313d 9347 ca3d 1c24 cabb b270 ad3c
00000200: 2766 6fbc 1432 bc3b 8b04 68be c904 8abe
00000210: 6394 b9bd d02c 783d 465b 2d3d 0688 78be
00000220: 3a1e a73d 1864 a13e 8732 2dbe 9ff7 533d
00000230: 7322 af3d 2022 e23e 2236 28bd 312d 73be
00000240: 42d6 813d f128 893d 3ff5 83be 57ce 53be
00000250: a7a2 d3bd a1d4 e83d bf43 9e3d b05f 7ebe
00000260: fba1 2bbe 663c 263c bf1c bb3d f2a9 f63d
00000270: 686b 763d 4387 93be 5d86 e2be 2cb0 56be
00000280: 23d0 fb3d e187 943e 220d a23e 28ba a6bd
00000290: 7dd7 b83d cd4a ccbd c100 503e 9d87 233e
000002a0: 0f57 233e c000 65bd 6139 90b9 eafb 53be
000002b0: 8714 42bc 5efb db3d 8602 dd3d 332c 283e
000002c0: 53a3 2ebe 5cc7 a8bd d6d8 ee3d e03e aabc
000002d0: 001c d13d 4df9 1dbd 6ced 173d 0005 fd3c
000002e0: a83e 723e 4adc cc3d 6d1b f43d cdc9 db3d
000002f0: f28f 25bd a350 283d a5b0 af3c 2ac9 d33b
00000300: cd0e 333c b21a 973b eaf3 8bbe 9b11 54be
00000310: 6fc3 43be ae61 85be d7a6 d7bd e2db a5bd
00000320: bbfa 2abd 0baf 02be 5277 cdbd 4710 133d
00000330: 76d7 733c 7581 f7be 7a6e 85bd 7778 7e3d
00000340: ef5a 65bc 4e2f c63d 864a 02bf e8eb cb3c
00000350: 6484 d5bd 8441 553d 4caf 0f3e 9d71 8abe
00000360: f870 e0bd 6063 25be 9b49 8c3d b22b 023e
00000370: 4ccf 7cbd 9ce5 c1bd 2c92 163c 2631 893d
00000380: d284 5c3e d2eb ce3c 4a73 e23d 3b18 40bd
00000390: bee6 f5bc 91bf 46bd 89bf 87bd bef3 383e
000003a0: a2e9 8bbc d019 acbd 9c55 89be d6be 86ba
000003b0: a530 7e3e 4265 b93d 14c2 8ebd 602d b8be
000003c0: e1b2 453e 98b0 153e 3af3 11bd 04b1 84be
000003d0: f530 8fbe 1137 2c3d d707 19bd 62d1 21be
000003e0: bc1a 70bd c1d1 3a3d
-0.10512831 -0.1769946 -0.19982438 -0.143434 -0.028294798 0.021134015 0.10024408 0.22654898
0.18873757 -0.39964634 0.17956059 0.12898703 -0.090529494 0.025681645 -0.34647602 -0.1855566
0.013884366 -0.32735667 -0.2352479 0.051085457 -0.16292644 0.10016476 0.20842957 0.16109262
0.12317526 0.11473544 0.012018599 0.048404045 0.02681571 0.12806326 -0.1455719 0.12053141
0.037254598 0.16613106 -0.0112317065 -0.24746934 0.012812463 0.12409515 0.042413067 0.18938589
-0.515504 -0.044829976 0.14258656 0.0635101 0.18393768 -0.31359792 -0.58874744 -0.55593216
-0.29811335 -0.16549335 0.1823351 0.03580179 0.13112177 -0.1407883 0.13006817 0.2856224
-0.090536006 -0.38576704 0.0037838083 0.19797266 0.21025386 -0.06957385 -0.3710594 -0.15549797
0.25944477 -0.012502236 0.113280475 -0.015059464 -0.13534762 0.19046238 -0.08095329 0.03657644
0.09352106 0.09594406 0.10544438 -0.11792925 -0.25259167 -0.30034456 0.07158995 -0.066945
-0.00024625426 -0.10657156 -0.55183333 -0.0051367655 -0.049373697 0.14779194 0.042014696 -0.27246416
-0.13361141 0.10392099 0.25899422 -0.05654934 -0.33718488 -0.27276865 0.2351194 0.27556154
0.104357705 -0.26262578 -0.16291565 0.030256093 0.12192791 -0.062417984 -0.39253524 -0.34562266
-0.19695935 -0.28573295 -0.7444048 0.023895198 0.025910685 0.074003115 -0.56767315 0.13645725
0.1343907 0.17274117 0.14479266 -0.25395334 0.16968334 0.08284718 0.053960484 0.029766222
-0.08513784 -0.09503745 0.085190356 -0.0073466497 0.04333824 0.09876933 -0.0061688554 0.021171901
-0.014611757 0.0057432745 -0.22657983 -0.26956776 -0.09061506 0.06058961 0.042323373 -0.24270639
0.08160062 0.31521678 -0.16913806 0.05174982 0.085514925 0.4416666 -0.04106725 -0.23747708
0.063396946 0.06697262 -0.25773045 -0.20684181 -0.10333758 0.11368681 0.07727765 -0.2484119
-0.1676101 0.010146236 0.09136342 0.12044133 0.060161024 -0.28814134 -0.44243136 -0.20965642
0.12295558 0.29009917 0.31650645 -0.08140975 0.09025476 -0.099752046 0.20312788 0.15969701
0.15951179 -0.05590892 -0.0002750857 -0.20701566 -0.011845714 0.10741304 0.10791497 0.1642311
-0.17054491 -0.0824115 0.11662452 -0.020781934 0.10210419 -0.03856783 0.037091658 0.030886173
0.23656714 0.10002954 0.119192936 0.1073185 -0.04042048 0.041092526 0.021446535 0.0064631896
0.010928822 0.0046113366 -0.2733453 -0.20709841 -0.19117521 -0.26051086 -0.10529869 -0.0809858
-0.04174302 -0.12762086 -0.10032524 0.035904195 0.014882913 -0.48340955 -0.06515212 0.062126603
-0.013998731 0.096769914 -0.50894964 0.024892762 -0.10425642 0.052064434 0.14031714 -0.27039805
-0.10959047 -0.1615119 0.06849977 0.12711981 -0.06172113 -0.09467623 0.0091901235 0.066988274
0.21535042 0.025258932 0.11057146 -0.046898108 -0.030017253 -0.048522536 -0.06628329 0.1806173
-0.017079178 -0.08403361 -0.26823127 -0.0010280262 0.24823244 0.090525165 -0.06970611 -0.35972118
0.19306518 0.14618146 -0.03563235 -0.25916302 -0.2796704 0.042044703 -0.037360992 -0.1580253
-0.058619246 0.045610193

conv1.bias f4 [10]
00000000: 99a5 28bc e5cf b9ba 7efe 01bf 6bbd 143b
00000010: 942d 613b a056 8ebd cfd9 07be fc51 a8bc
00000020: f69a 07bc dfd1 d3bd
-0.010293388 -0.0014176337 -0.5077895 0.002269591 0.0034359442 -0.06950116 -0.13266681 -0.020546906
-0.008276692 -0.10342764

conv2.weight f4 [20, 10, 5, 5]
00000000: daf1 933d ab16 763a ebf2 9d3c 58b8 cdbc
00000010: 92c8 66bb 08cb b03d 2dc6 d2bc fe27 18bd
00000020: 7b70 ca3d e63e c5bd b8ce 663d aee9 e5bd
00000030: c27f b6bc 44da c03d ce07 5b3e 13f7 e8bd
00000040: 4aed 2e3e 050b ff3d dd6d 88bc 3ac2 463e
00000050: cee4 d7bd 9021 01be e119 53be 2ad8 96bd
00000060: f108 0c3d 03eb c3bd 5797 18be 6a47 f9bd
00000070: 919a b5be 106b 22be 8767 0f3e aa7c 8e3d
00000080: 8de9 4ebe 0448 35be b535 1d3e e0f5 2b3e
00000090: 7e36 c53d fb63 8c3d c5e8 143d 77c8 4bbe
000000a0: 7db8 ef3d f87d ed3d 7383 1e3e a319 513d
000000b0: 1ec3 6cbe d8aa 74bd c0ca 3dbe b3c8 1fbe
000000c0: 9fd9 1fbd 12f2 d2bd f223 2b3d d5e7 dfbd
000000d0: 3406 d13b 7c93 37be 43d7 333e e992 ae3d
000000e0: b072 ca3c 8093 e1b9 c52c a2bd 27a0 5d3e
000000f0: 361c 78bc a70e fabd a21a cbbd 504e 773e
00000100: 4ac3 6b3d e933 1ebe c449 05bd e4d6 a6bd
00000110: 0425 053d 5ca4 f83d aced 98be 3314 8abd
00000120: 147b 6fbd e256 7fbe 0a8a a9bc ce3b 03be
00000130: 1b46 98bd 421f 933d f0c6 42be 4b9f b9be
00000140: 0e8c 22bd 60d4 e3bc b62f 70bc 56d5 d9bd
00000150: aacd c13c de36 12be dbff 1b3d 7eb1 493e
00000160: 2f37 583e 5bbb 1b3e 80c2 29be f8e2 03be
00000170: aa20 6e3e 4f31 f8bb d850 05be 3860 0fbe
00000180: 6bc5 6fbe 5b4d e2bc 7c9c 2ebe 9e75 23be
00000190: b439 03be 94da 5ebd 478a 413d 7a77 a13d
000001a0: 4fa4 f23d c832 a6bd 863f 80bd c45b f83c
000001b0: 4479 b0bd 4dd1 5bbe 506e 663d da12 c9bd
000001c0: adee dabd 4365 f4bd 51f7 9c3d 68c8 933d
000001d0: a287 bb3b 8b9d 40bd 2995 94be af62 32be
000001e0: 89a5 2bbe fd03 8a3e 0f3d 0d3d 5362 92be
000001f0: e853 d7be eed0 0fbd 56c2 fb3c 0e4c ea3d
00000200: db0d 263d 9bed 973d d2f7 cc3d e12f 7e3d
00000210: 6249 353d 8046 403c 28ab 843d 1b19 53bd
00000220: 647f 0bbd 63c5 b63d cdbf 773d 8a4f 493e
00000230: 69c3 39bd a2f1 2c3d 9a3d b13d 4de9 f3bd
00000240: 970b eabd c58c a3bd 3c3d c5bd 40a0 85be
00000250: ef40 e83d bbe6 88bd 499b 63bc eda4 41be
00000260: 3f30 01bd aed9 8b3d 7dc2 98bd 703e dfbd
00000270: cd26 82be 5074 1dbe 2f74 b4ba 3157 a3bd
00000280: 5707 28bd ae80 00be 4fc3 3f3d 3656 453e
00000290: 6271 693e 1212 f33c a407 213e d2de 10bb
000002a0: 150f 4e3e f53c 8aba 0b56 5c3d edca 2abe
000002b0: 3cbc 62be 92e7 2bbd 8fba 53bc d17c d93c
000002c0: 9e7f e23d 3d7f 073e 6c51 5e3d 0a3f 2fbd
000002d0: 651d 0fbe 233e a3be 9e6c 90be 9b7d 2ebe
000002e0: 8201 a03d 9e2f 07be 16bb 623c 0f71 003e
000002f0: 84a7 753d 05f8 833d 70b6 b9bb 4f17 1f3e
00000300: 409c 173e 479f bf3d 3447 f7bd 9d2b 303e
00000310: 384d e73d a51b 63bd d3f8 d33d 70eb 4e3e
00000320: 93c3 9b3c cfe4 fc3c d902 a4bc 2101 24be
00000330: d702 0abf 3dc5 84bb f940 d3bd 96a2 6bbc
00000340: a194 20be 19c0 a4be 0d23 3a3d 52dd 7bbd
00000350: 1241 7a3d 23f4 e03d 3587 a8bc 805a 75bc
00000360: 8818 933d ccbb 1d3e f2b1 abbb 88b5 c9be
00000370: bd39 2cbe 18ed 25bd 7f43 e33d 0a1d c9bd
00000380: e19f 283d 83b5 103e 5e09 1fbd 86a2 0f3e
00000390: f297 b93d b0f4 4abe 61d0 233e b4ee b83d
000003a0: 39e1 95bc 8583 ccbd ab22 1cbe 0816 73ba
000003b0: 11d5 8ebc 74af 2ebe 6d90 6bbd 66d6 fd3d
000003c0: 54e0 84be 1a52 3bbd 96a7 a03c ad0b a0bd
000003d0: 0f45 b1bc 8432 cdbc 4216 acbe 1c95 eabd
000003e0: e671 1b3d 4d52 afbd 74ea 283e 2cfc 2e3e
000003f0: 153e a93d 75a9 50bd b3f6 03be 1625 393e
0.07223864 0.0009387533 0.019280871 -0.025112316 -0.0035214764 0.08632475 -0.025729263 -0.037147515
0.09884735 -0.096311375 0.056349486 -0.112262115 -0.022277717 0.09416631 0.21389696 -0.11375251
0.17082706 0.12453274 -0.01665395 0.19410029 -0.10541688 -0.1261046 -0.20615341 -0.07365449
0.034188215 -0.09566309 -0.14901482 -0.12171824 -0.35469487 -0.15861154 0.14004336 0.069573715
-0.2020628 -0.17703253 0.15352519 0.16793013 0.09629534 0.06855007 0.0363548 -0.1990069
0.1170511 0.11596292 0.15479831 0.05104984 -0.23121306 -0.05973324 -0.18534374 -0.15603904
-0.0390259 -0.103000775 0.041782327 -0.1093289 0.0063789133 -0.17927355 0.17562585 0.08524115
0.02471289 -0.0004302524 -0.07918695 0.21643125 -0.015143445 -0.12209826 -0.09917189 0.24150968
0.05755929 -0.1544949 -0.03254105 -0.08146456 0.032506004 0.12140724 -0.2986883 -0.06742134
-0.058466986 -0.24935487 -0.020695705 -0.12815782 -0.074352466 0.07183696 -0.19021201 -0.36254343
-0.039684348 -0.02781123 -0.014659813 -0.10636394 0.023657639 -0.14278743 0.0380858 0.19696614
0.21114801 0.15208189 -0.16578102 -0.1287955 0.23254648 -0.0075742374 -0.1301912 -0.14001548
-0.23415153 -0.027624777 -0.17051882 -0.15962836 -0.12814981 -0.05440767 0.047251012 0.078841165
0.118477456 -0.081151545 -0.06262116 0.030317195 -0.086168796 -0.2146656 0.056257546 -0.09818049
-0.10690055 -0.11933377 0.07664359 0.07215959 0.005722956 -0.047025245 -0.2902005 -0.17420457
-0.16762365 0.26956168 0.03448206 -0.2859064 -0.42056203 -0.03511136 0.030732315 0.114402875
0.040540557 0.074183665 0.100082055 0.06205738 0.044259436 0.0117355585 0.06477958 -0.051537614
-0.034057036 0.08924367 0.06048565 0.19659248 -0.045352373 0.042222627 0.08654328 -0.11909733
-0.11427992 -0.07985834 -0.0963082 -0.26098824 0.1134051 -0.06684633 -0.013892003 -0.1891057
-0.03154015 0.068286285 -0.07458971 -0.10900581 -0.25420228 -0.15376401 -0.0013767536 -0.07975615
-0.041022625 -0.12549087 0.04681712 0.19271168 0.22797158 0.029671703 0.15725571 -0.0022105468
0.20122941 -0.0010546731 0.053792994 -0.16678973 -0.22142118 -0.04196889 -0.012922897 0.026548775
0.11059497 0.13232131 0.05427687 -0.042784728 -0.13976057 -0.31883344 -0.28207868 -0.17040102
0.078127876 -0.13201758 0.01383855 0.12543128 0.05997421 0.0644379 -0.0056675 0.15536235
0.14805698 0.093565516 -0.12074128 0.17204137 0.11294025 -0.055446286 0.10350194 0.20207
0.019014155 0.030870823 -0.02002089 -0.16016056 -0.53910583 -0.004051833 -0.10315127 -0.014382025
-0.15681697 -0.3217781 0.045443583 -0.061490364 0.061097212 0.109840654 -0.020572284 -0.01497519
0.07182413 0.1540367 -0.0052397186 -0.3939631 -0.168189 -0.040509313 0.11096858 -0.09819992
0.041168097 0.14131741 -0.038827293 0.14026842 0.090621844 -0.19819903 0.15997459 0.09029904
-0.018295871 -0.09986023 -0.152476 -0.0009272997 -0.017435582 -0.17059118 -0.057510782 0.12394409
-0.259524 -0.045732595 0.019611161 -0.07814727 -0.021639375 -0.025048502 -0.3361073 -0.114542216
0.03795042 -0.085606195 0.16495687 0.17088383 0.08263794 -0.050942857 -0.12887077 0.18080553

conv2.bias f4 [20]
00000000: bbeb edbc 5342 39be e12a f3bc dd02 edbc
00000010: efdd 4cbd ccde a7bb 5ba8 3bbe d213 833c
00000020: e89a 44bd e645 253e c788 cd3b 5fbd dcbd
00000030: 256d 71bc 1bbf 54be 6520 1abe d067 09be
00000040: 74c9 d83b b357 95bc cd83 cdbd 20e9 0f3c
-0.02904307 -0.18091707 -0.029683532 -0.02893203 -0.05001634 -0.005122995 -0.18325941 0.016000662
-0.047999293 0.16139945 0.0062724086 -0.10778307 -0.014735495 -0.20776026 -0.1505142 -0.13418508
0.006615812 -0.018230295 -0.10034905 0.008783609

fc1.weight f4 [50, 320]
00000000: ee44 2d3e 3279 2dbc 00b1 ab3d f4a6 c73d
00000010: d76f 62bd fca2 dcbd 8e5e ad3e f64d 0e3e
00000020: 8ac8 99bd e8a0 803d 39a6 4f3d a66f 993c
00000030: 9912 a4bd ab92 7abe 3b84 963b 8246 3cbd
00000040: 39b3 a53e 5f1f 813d 30f9 763c 00de 03be
00000050: 90db 723e c6d6 c6bd 2110 00be 4228 cdbd
00000060: a725 103e ff3b 3bbe 51f4 77bd 12e4 9ebb
00000070: eedb fc3d 52c6 93bc b53a da3d fdef bf3a
00000080: 2449 bebc b080 833d 76cd 6dbd 2f6b 303e
00000090: ae60 163e 3ea7 9fbd 7f22 4bbd 87c9 2d3d
000000a0: 402f 3a3d f9ee f2bd 1bc3 52bc 81f0 e4bc
000000b0: bce6 0f3d ce86 c0bd cfb7 4cb9 e455 acbd
000000c0: aa1b 743d c65d 393e 2f94 3cbd 3be3 99bd
000000d0: 98fd 4b3c 6ed7 cd3d 6747 033e fac0 90bd
000000e0: 32fe 0bbf abf2 3c3d c11a fabc c53a ef3d
000000f0: 9235 9abd d97f bdbc 1675 e8bc 54f3 e23d
00000100: 8ab8 aebd 0ea0 6d3a 2784 283e e32c 833e
00000110: c871 83bc fb69 0f3e cd95 23be b700 6bbe
00000120: 9db2 2d3d 0640 633e 4bff 4ebc 82ae 1cbe
00000130: dfcb e63d 6233 9ebc 5e50 b7bd d995 18be
00000140: 9e4e 0b3f bafa 0f3e 4fc7 04bd 915d 21be
00000150: 4605 ccbd 8435 60be d258 5fbd 140c a73d
00000160: 6dfd 54be dbc6 a63c 2b43 803c 5455 013e
00000170: ad59 ab3c b8b7 61be 8dab ca3c 4d6b ffbc
00000180: c183 41bd 98aa 033e 84e5 383e 7eeb aa3d
00000190: 1bb2 7fbd 3eee 78be 77b9 98bd 9048 203e
000001a0: a233 303e 0a94 023d a389 b9bb b6de dbbd
000001b0: dd25 ac3d 9b94 913d cc89 1bbd 64ff cebd
000001c0: a338 a0bd 6cdf 213d 0b9c 1e3e 7208 53bd
000001d0: 3a70 5c3d 8c7b 4abe 0b23 e4bd 2029 08be
000001e0: b7d2 813d 4d19 973d c610 adbd 4e81 c4bd
000001f0: f46c 4f3e 22b9 163e 0a19 713e 777e 263c
00000200: cafc 0bbe 67cf eb3d 2fbd 25bd 1d10 f03d
00000210: d580 04be 6a7d 50be aee6 b93d 0ee3 173e
00000220: 2e0b 2dbd b0d1 373d d48d 4c3d 0c31 8abd
00000230: 03a2 babe 06a4 37be b223 373d a617 253d
00000240: 9b29 9fbd 8907 15be 0b2f 8d3e a11a c63c
00000250: 57df eabc 02d4 3c3d d3dc f1bc 8690 4cbe
00000260: 3d6d 66be 1b62 113e 0ac9 803d b18b 33be
00000270: 91f7 443e d139 58be 9a52 a73d 833e 543e
00000280: 3722 40bc 0563 d43b 589c aebd 4a94 6d3e
00000290: b6f2 22bd 2fc6 193d f8bc eb3d 9e28 e4bc
000002a0: 221d 123d b9be 62bd 2958 063e 3b43 8bbd
000002b0: 1342 113c c336 0fbd c287 8dbe 1554 1abd
000002c0: e038 183e 73a1 99bb 6adf eabc 89f6 12be
000002d0: 0c14 2c3d 488a debd ad4d 4b3d 56e3 06bd
000002e0: aeac 863e 8998 9bbd 40aa 2ebd 774d 6dbd
000002f0: 7b49 933e 1add d7bd d03e 3bbe 02b6 c63d
00000300: 7fa2 6c3a 0236 7abb 4abe 14be 9c45 443d
00000310: b850 d4bd ab9c babd a0b7 3c3d 5464 a83d
00000320: f503 35bd fedd 573e 5108 2c3e c366 f23d
00000330: 6aa4 35be 9b4e abbd 9a79 42be 1ff7 d93d
00000340: 02a8 6a3c 66f3 2ebe d470 9e3c 3e9e 993e
00000350: 1520 85bd 10d3 ad3d 1f93 fd3d ce04 573e
00000360: bb14 20be 2d50 8abd 33f8 63bd fa51 113e
00000370: b2cd 04be 40ba 13be 299d 473d e5f5 21bc
00000380: be2c 7b3c 7578 44bd bc66 3fbc deeb 7a3e
00000390: f9b3 f03d 3c4b 8a3c fceb dcbd ee69 ffbd
000003a0: 60cd 2b3e f283 7dbe 5fa1 8abd cb09 623d
000003b0: e9bf 4c3e 2243 83bd 8ddc 55be 121d 44be
000003c0: 9784 ac3d 0d38 fe3c 8206 f8bd dd33 df3d
000003d0: b694 71bd a4b5 9a3d 9830 223e 3f89 7ebb
000003e0: c00e a0bd 8de9 9fbd 5fa1 a23d 7ed5 863d
000003f0: 4556 043e a35d 1bbe 9b01 a3be 4a02 4d3d
0.16920826 -0.010587977 0.083833694 0.09748641 -0.05528244 -0.10773274 0.33861202 0.13896927
-0.07508953 0.062806904 0.05069563 0.018729996 -0.0801136 -0.24470012 0.0045934 -0.04596568
0.323633 0.06304812 0.015074059 -0.12877655 0.23716569 -0.097089335 -0.12506153 -0.10017444
0.14076863 -0.18284605 -0.060535733 -0.0048489654 0.12346636 -0.018038902 0.10655729 0.0014643666
-0.023228236 0.064210296 -0.05805727 0.17228387 0.14685318 -0.07795571 -0.049593445 0.04242852
0.045455217 -0.11861987 -0.0128639 -0.027946712 0.035132155 -0.09400712 -0.0001952343 -0.0841482
0.059596695 0.18102178 -0.046039756 -0.07514044 0.012450598 0.100508556 0.12820207 -0.07068057
-0.54684746 0.046129864 -0.030530335 0.11681131 -0.07529749 -0.023132252 -0.028376143 0.110815674
-0.08531292 0.00090646825 0.16456662 0.25620183 -0.016045466 0.14005272 -0.15975113 -0.22949491
0.042406667 0.22192392 -0.012634109 -0.15300944 0.11269354 -0.01931161 -0.08950876 -0.14900912
0.54416835 0.14060488 -0.032416638 -0.15758349 -0.09961943 -0.21895415 -0.054528065 0.081566006
-0.207998 0.020358494 0.015657028 0.12630206 0.020916784 -0.2204274 0.024740005 -0.031179095
-0.04724479 0.12858045 0.18056303 0.08345698 -0.062425714 -0.24309632 -0.074572496 0.1565268
0.17207196 0.031879462 -0.0056621595 -0.10735838 0.08405659 0.07108422 -0.03797321 -0.10107306
-0.078233026 0.039519712 0.15489213 -0.051521726 0.053817965 -0.19773692 -0.111394964 -0.13296938
0.06339019 0.073778726 -0.08450465 -0.095949754 0.20256406 0.1471906 0.23544708 0.0101619875
-0.1367065 0.11514168 -0.040463623 0.11721823 -0.1293977 -0.20360342 0.09077202 0.14832708
-0.04224699 0.044877708 0.049939945 -0.06747636 -0.3645173 -0.17933664 0.044711776 0.040305756
-0.077716075 -0.14553656 0.27574953 0.02418262 -0.02867095 0.046100624 -0.029524243 -0.19977006
-0.22502609 0.1419758 0.06288345 -0.17533757 0.19235064 -0.21115805 0.08170052 0.20726971
-0.011726907 0.0064815306 -0.08525914 0.23201099 -0.03978225 0.03754252 0.11510652 -0.027851399
0.035672314 -0.05535767 0.13119568 -0.067999326 0.008865851 -0.034964334 -0.27642637 -0.037677843
0.14865446 -0.0046884357 -0.028670985 -0.14351858 0.042011306 -0.10866219 0.049634624 -0.03293165
0.2630362 -0.07597453 -0.04264283 -0.057935204 0.28767 -0.10540219 -0.1828568 0.09702684
0.00090268994 -0.0038179164 -0.14525715 0.047917947 -0.103669584 -0.09111913 0.046073556 0.08222261
-0.044193227 0.21080777 0.16800047 0.118360065 -0.177385 -0.08364602 -0.189917 0.10642838
0.014322283 -0.17085037 0.01934091 0.30003542 -0.0650026 0.084875226 0.12381577 0.20997927
-0.15632908 -0.067535736 -0.055656623 0.14191428 -0.12969092 -0.14426517 0.048733864 -0.009885286
0.015330492 -0.04796644 -0.011682209 0.24504039 0.11753077 0.016881578 -0.10787198 -0.12471376
0.16777563 -0.24757364 -0.0676906 0.05518512 0.19995083 -0.06409289 -0.20884915 -0.19151714
0.08423727 0.031032586 -0.12110616 0.10898564 -0.058979712 0.075541764 0.1583885 -0.003883913
-0.07815313 -0.07808218 0.07940935 0.06583689 0.12923534 -0.15172438 -0.31837162 0.05005101

fc1.bias f4 [50]
00000000: 6552 603f a2ec 303f 2ffa 2a3f 25d3 663f
00000010: 5467 7b3f d2fb 6a3f 45dc 393f c652 613f
00000020: f63c 563f 5446 593f 8958 4f3f c7d5 973f
00000030: fbe9 5a3f b449 693f 1919 8e3f c6e3 383f
00000040: d99e 4e3f 9b28 3d3f 3fc6 2a3f 8970 7f3f
00000050: c63f 453f 9a01 703f 86eb 283f cef2 733f
00000060: 14f0 5e3f 75d1 443f 6d49 643f f8a2 433f
00000070: d02e 513f 2b9c 683f 181d 483f 05bf 573f
00000080: ddd7 1d3f cf10 783f d222 413f 5bf3 813f
00000090: c0c9 613f 7153 493f 945f 693f 2914 393f
000000a0: f2d0 8c3f de6b 7f3f 76b7 473f b8b6 6e3f
000000b0: c599 353f 8271 803f 1c28 553f 1996 413f
000000c0: 2031 833f 96e0 853f
0.87625724 0.69111073 0.66788 0.9016593 0.9820454 0.917905 0.7260173 0.8801693
0.8368677 0.8487294 0.8099447 1.1862115 0.85513276 0.9112809 1.1101409 0.72222555
0.8071113 0.73890084 0.6670875 0.9978109 0.77050436 0.93752444 0.6598438 0.95292366
0.8708508 0.76882106 0.8917454 0.76420546 0.81712055 0.90863293 0.78169394 0.8427585
0.61657506 0.9690065 0.75443757 1.0152391 0.8819847 0.78642946 0.91161466 0.72296387
1.1001265 0.9977397 0.78014314 0.93247557 0.7093776 1.003464 0.8326433 0.75619656
1.0249367 1.0459163

fc2.weight f4 [10, 50]
00000000: bd3c ebbd aa38 3cbe 53ee e7bd 5f88 39be
00000010: c37d e2bd 994a 34be b407 eb3d 2f3b 023e
00000020: b89d 4b3e 1812 193e 75fa 3a3e 48c2 acbe
00000030: 0a92 243e f9bc 59be 8fa2 ccbd 5441 0fbe
00000040: 7302 693e f8d9 e9bd f210 1abe c690 2c3e
00000050: d095 c7bd ac49 cbbd 871e 6dbe d05d 0e3e
00000060: 9de7 653e d4b4 5ebe 3e83 43be 92cc 043e
00000070: 3ae3 debd 6520 0dbe e649 413e cbbb 0fbe
00000080: f469 21be 4420 13be adbb 4abe 69fc 14be
00000090: 5264 56be 712b 8f3e 2b17 373e 7228 a0bd
000000a0: 811f 8e3e 4ee6 10be 7e4f 943d 3e8a 3f3e
000000b0: 400b e3bd 40c2 22be c025 46be 82ec 2b3e
000000c0: 68d4 3d3e 1825 193e 7dbd 003e 3b8f e8bd
000000d0: ff08 35be 2bde 2a3e dbf6 1d3e a4ab 283e
000000e0: 5b82 35be 29cd 4abe 0540 9abd cea2 fabd
000000f0: bfca 1fbe 465c 9c3d 0420 4dbe 0b38 0f3e
00000100: bf99 813e 55a6 0fbe e5b5 1bbe 16f5 14be
00000110: 826c 1fbe c4c6 42be c22e 08be 779a 863e
00000120: 8c64 7bbe c566 2b3e 2aa3 753e b87e 65be
00000130: deb8 4ebe 9f24 0fbe 1561 f3bd ee54 103e
00000140: 7c1a b5bd fec8 2d3e 4ec8 28be c42b 293e
00000150: 0fd8 5cbe df74 363e a071 ebbd ca5c 2fbe
00000160: 17e8 b5bd ac19 f1bd e479 823e 3061 2d3e
00000170: 2722 5cbe 89ce bcbd 7f0b 4cbe 41fe 2f3e
00000180: f881 5fbe 27a4 4dbe c588 453e ed93 033e
00000190: a4fc 53be 424e 3b3e 9f29 5d3e 4991 7abe
000001a0: 43c7 323e ff86 ed3d 91f8 003e b50b 5abe
000001b0: c5ac 783e 973a 20be 2f85 1b3c 89a9 a5be
000001c0: eb87 ccbd ebc3 1fbe b783 81be 7a07 1b3e
000001d0: 5ab8 6d3e 8de4 50be da6d f03d 4438 9cbe
000001e0: 3866 2bbe 62e7 89be 7c3d 13be 32a4 70be
000001f0: b6ff 33be 1b8d 26be b072 08be 28ce 2fbe
00000200: cba5 dcbd 6413 4cbe 17a5 e4bd 2614 183e
00000210: b529 013e 5c95 18be f6f2 71be 6bef 373e
00000220: 8418 80be d318 133c fdf5 50be 5d3a 483e
00000230: 62eb 74be bb32 343e c6eb 34be 4cee 23be
00000240: 3fe7 da3d f9e4 00be 5001 20be d883 0f3e
00000250: 9238 0c3e fb06 92be 6550 103e 0398 24be
00000260: 51a1 1c3e a691 fa3d 807d 9cbe 730c 1d3e
00000270: adbc 6fbe 92d7 cf3d bc14 30be 4b39 1a3e
00000280: 0fdc 193e 3675 bdbe fa35 8ebe 7381 8dbe
00000290: bed8 08be 22df 32be 40e7 533e 08bf 003e
000002a0: d5d4 083e 3484 29be 7abe 613e e343 2abe
000002b0: e3a4 5ebe cc8b 2dbe be7b 41be 6c93 5bbe
000002c0: 3d9d 53be 04a3 f63d 744f 153e 5ef3 233e
000002d0: 95c7 dbbd 8076 083e e674 1abe 5d97 e7bd
000002e0: b3a1 da3d d530 80be 54bd 493e a2b3 25be
000002f0: ed73 06be 1428 48be bca9 67be 6492 083e
00000300: 934e 7ebe d109 f5bd cf96 f33d 94e3 87be
00000310: 44b1 84be 0b40 243e 2d45 58be b1c9 003e
00000320: ae21 063e 3b19 dabd bde2 4dbe f0da 87be
00000330: 625c 4cbe b009 4dbe 81fb ec3d 2a52 0e3e
00000340: a444 b6bd a40e 53be 0b0b 3c3e 80c4 0f3e
00000350: 9927 88be 31c4 82be 51d9 843e f8ab 3b3e
00000360: e8e0 c5bd b90d 0f3e b05a 2cbe 8f06 563e
00000370: 3040 90bd 2144 87be fa47 20be b47b 473e
00000380: dba7 65be 0490 86be 1cfe 1e3e 00d2 8fbe
00000390: c6c5 1f3e 47bd 04be 1d78 e3bd 496c 0bbe
000003a0: 128e 13be 2f71 2c3e 4dad 84be b3fd 33be
000003b0: 045d 34be f364 4cbd 070d f0bd 50ee 423e
000003c0: f9b8 2dbe 66a2 2ebe f5a1 80be 6ed4 cfbd
000003d0: 5cb7 123e 02a4 193e a1dc 193e 07d2 20be
000003e0: 5506 2cbe 88df 52be 32c8 1b3e ac7d 353e
000003f0: bded 6b3e 212d 77be 099d 1bbe 27b7 3fbe
-0.11486194 -0.1838099 -0.113247536 -0.18118428 -0.110591434 -0.17606582 0.11476079 0.12717889
0.19884384 0.14948308 0.18259604 -0.33741975 0.16071334 -0.21263494 -0.09991943 -0.13989764
0.2275484 -0.11418527 -0.15045527 0.16852102 -0.09745371 -0.09926161 -0.23156177 0.13902974
0.22451635 -0.21748668 -0.19093034 0.12968662 -0.10883184 -0.13781889 0.18875846 -0.14036481
-0.15763074 -0.14367777 -0.19798155 -0.14549412 -0.20936707 0.2796283 0.17879932 -0.07820214
0.2775841 -0.14150354 0.072417244 0.18705079 -0.1108613 -0.15894413 -0.19350338 0.1678944
0.18538058 0.14955556 0.12572284 -0.11355444 -0.17679213 0.16686313 0.15426199 0.16471726
-0.17725508 -0.19804825 -0.07531742 -0.12238084 -0.15604685 0.07634787 -0.20031744 0.13986222
0.2531261 -0.14028294 -0.15206106 -0.14546618 -0.15568736 -0.19021136 -0.13299087 0.26289722
-0.24550074 0.16738422 0.23988023 -0.2241162 -0.20187709 -0.13978814 -0.11883751 0.14094898
-0.08842942 0.16971204 -0.1648266 0.16520602 -0.21566795 0.1781802 -0.114962816 -0.1712524
-0.08882158 -0.11772475 0.2548362 0.16931605 -0.21497403 -0.09219081 -0.1992626 0.17186834
-0.21826923 -0.2008215 0.19290455 0.12849398 -0.20701844 0.18291572 0.21597908 -0.24469484
0.17458825 0.11598014 0.1259482 -0.21293528 0.24284656 -0.1564735 0.009492203 -0.32355908
-0.09986862 -0.1560208 -0.25295803 0.15139571 0.23214856 -0.20399685 0.117397025 -0.30511677
-0.16738212 -0.26934344 -0.14378923 -0.23500136 -0.17578015 -0.16264765 -0.13325 -0.17168486
-0.1077381 -0.19929272 -0.11164301 0.14851436 0.12613566 -0.14900726 -0.23627838 0.17962424
-0.25018704 0.0089780865 -0.20406337 0.19553514 -0.23917916 0.17597477 -0.17668065 -0.16008872
0.10688638 -0.12587346 -0.156255 0.14015138 0.13693455 -0.2852095 0.14093168 -0.16073613
0.15295912 0.122348115 -0.305645 0.1533678 -0.23411818 0.10148539 -0.1719541 0.15060918
0.15025352 -0.37003487 -0.27775556 -0.27637824 -0.1336393 -0.17467931 0.20693684 0.12572873
0.13362439 -0.16554338 0.22045317 -0.16627459 -0.21742587 -0.1694786 -0.1889486 -0.21442956
-0.2066545 0.120428115 0.1458109 0.16010806 -0.107314266 0.13326454 -0.15083656 -0.11308167
0.10675373 -0.25037256 0.19701129 -0.16181806 -0.1313016 -0.19546539 -0.22623342 0.13337094
-0.24834661 -0.11964763 0.11893999 -0.26540816 -0.25916493 0.16040055 -0.21120138 0.12576939
0.13098785 -0.106493436 -0.20106025 -0.26534224 -0.19957116 -0.20023227 0.11571408 0.1389853
-0.08899811 -0.20611054 0.18363588 0.14039803 -0.2659271 -0.25540307 0.2594705 0.1832732
-0.09662038 0.13970079 -0.1683147 0.2090094 -0.07043493 -0.26419166 -0.15652457 0.19480783
-0.22427313 -0.2628175 0.15526623 -0.28089905 0.15602788 -0.12962829 -0.11106894 -0.13615526
-0.14409664 0.16840051 -0.25913468 -0.17577247 -0.17613608 -0.04990096 -0.11721235 0.19036222
-0.16965093 -0.17054138 -0.25123563 -0.101479396 0.14327759 0.1500397 0.1502557 -0.15705119
-0.1679929 -0.20593083 0.15213087 0.17723721 0.23039909 -0.24138309 -0.15196623 -0.18722211

fc2.bias f4 [10]
00000000: 048c a1be ea2c a13c 0af1 d63e 430c 87bc
00000010: f183 5d3e ef94 783d e6ab 04be bf56 0ebe
00000020: b583 c0bd 4249 803b
-0.31552136 0.019674737 0.41980773 -0.016485339 0.21632363 0.06068891 -0.12956199 -0.13900279
-0.09400121 0.003914983
